cifar_net.pth (torch, 251732 bytes, 10 tensors)

conv1.weight f4 [6, 3, 5, 5]
0.51346034 0.30374777 -0.74336934 -0.36910242 0.187117 0.5728053 -0.5457996 -1.0071718
0.17845814 0.4056818 0.3203679 -0.8152485 -0.57064116 0.65781206 0.3098511 0.18720832
-0.55860734 -0.16786514 0.7854278 -0.052011345 0.09653585 -0.09060466 0.23253708 0.12387629
-0.13140602 0.5776132 0.2875175 -0.75845265 -0.25611082 -0.0772959 0.6613112 -0.73713815
-1.2000477 0.11621436 0.29738635 0.22044674 -0.8349698 -0.64298415 0.5292937 0.22933218
0.045677904 -0.6576428 -0.32136163 0.5704646 0.16771503 -0.006443974 -0.25879252 0.032609947
0.321133 0.1792048 -0.049797703 -0.0010185149 -0.36259925 -0.12906452 0.24060832 0.41996917
-0.37191477 -0.8435547 0.48732165 0.6368092 0.5683098 -0.52204144 -0.4111814 0.70142627
0.230809 0.28417453 -0.4892272 -0.20527723 0.57094854 0.03966184 0.005808363 -0.30512416
0.072067715 0.42252105 0.0117942365 0.12466219 -0.083444744 0.28383377 0.15224156 -0.4816222
0.20808548 -0.24870235 -0.31038684 0.7804628 -0.4383052 0.4265115 -0.0347138 -1.3671024
0.6722628 0.08020039 0.2428627 0.93168133 -1.1480064 -0.41689298 -0.0072065946 -0.081910156
0.74839866 0.18837646 -0.033361383 -0.07871569 -0.13421974 -0.32533607 -0.014480356 0.18146576
0.38427457 0.14503643 -0.6378369 -0.47366357 1.060649 0.13107556 0.55694 -0.31807777
-1.7069631 0.7776981 0.5853558 0.51002 0.7843643 -1.3288661 -0.44718748 0.20342626
-0.11195945 0.5655078 -0.13009802 -0.2730344 -0.18679586 0.051506672 -0.18591431 0.05025249
0.012449097 -0.12620918 0.36475503 -0.3493901 -0.4958735 0.7517359 -0.18188241 0.67110634
-0.08177194 -1.4674041 0.61907417 0.2384412 0.53605074 0.9168494 -1.2384049 -0.5253217
0.023644123 -0.05913498 0.76631635 0.25374815 -0.12027439 -0.14891042 -0.2285304 -0.07004177
-0.19057757 -0.086040586 0.11460442 -0.15694854 -0.6321131 -0.5318948 -0.2558918 -0.115634754
-0.35463148 -0.50847584 -0.42043725 -0.2918517 -0.045881625 -0.0955852 -0.14786167 -0.03779952
0.26321638 0.35148516 -0.08921719 -0.047468547 0.12826347 0.48857656 0.5753682 -0.063546434
-0.02483277 0.019493438 -0.086819306 0.07097753 -0.016387565 -0.1282581 -0.26359126 -0.19374855
-0.044055235 0.03648426 0.055238582 -0.12024617 -0.16466278 -0.14426614 0.025982272 0.154619
0.1566971 -0.15314634 -0.39991587 0.005924318 0.20876922 0.10959547 -0.15074933 -0.29669833
-0.072236314 0.1456447 -0.039030183 -0.056632075 -0.0016078671 0.1313521 0.08337847 0.07477747
0.23193559 -0.063156664 0.064183414 0.6159009 0.5757754 0.35496405 0.10694536 0.20161155
0.74653727 0.6277669 0.4026548 -0.16884406 0.079426534 0.47493148 0.52081984 0.27909625
-0.22115733 0.36526895 0.61117804 0.82828844 0.8376441 0.49435782 0.2833759 0.069725774
0.23624553 0.6433466 0.751591 -0.120351076 -0.10700103 -0.25688496 0.076033965 0.37616074
-0.39337143 -0.45881167 -0.27616212 -0.11347436 0.0050753495 -0.78366363 -0.73413455 -0.49979788
-0.40977526 -0.17789079 -0.7659021 -0.4670855 -0.263641 0.21592233 0.1872133 -0.70892185
00000000: 2372 033f d484 9b3e 744d 3ebf fefa bcbe
00000010: 999b 3f3e 5ea3 123f 86b9 0bbf 01eb 80bf
00000020: bbbd 363e 86b5 cf3e 4307 a43e 20b4 50bf
00000030: 8a15 12bf 5f66 283f cea4 9e3e 8ab3 3f3e
00000040: e400 0fbf d7e4 2bbe cc11 493f d909 55bd
00000050: 96b4 c53d f08e b9bd 331e 6e3e dab2 fd3d
00000060: 4d8f 06be 75de 133f 7e35 933e f429 42bf
00000070: f520 83be 504d 9ebd b14b 293f 16b5 3cbf
00000080: 2a9b 99bf cb01 ee3d 0643 983e cabc 613e
00000090: 95c0 55bf 9c9a 24bf cb7f 073f 0ed6 6a3e
000000a0: c118 3b3d 475b 28bf 8389 a4be f809 123f
000000b0: 7dbd 2b3e f927 d3bb 7480 84be 0292 053d
000000c0: 8b6b a43e 7781 373e adf8 4bbd b07f 85ba
000000d0: 9ca6 b9be 7d29 04be 0762 763e 3306 d73e
000000e0: 9d6b bebe 33f3 57bf 3982 f93e ed05 233f
000000f0: c07c 113f 82a4 05bf 5e86 d2be ac90 333f
00000100: 3259 6c3e 537f 913e fd7b fabe 3234 52be
00000110: af29 123f 7474 223d 1554 be3b 3c39 9cbe
00000120: 3d98 933d ae54 d83e 9d3c 413c e44e ff3d
00000130: 14e5 aabd a952 913e 36e5 1b3e 2f97 f6be
00000140: 5c14 553e d4ab 7ebe 06eb 9ebe 69cc 473f
00000150: 8a69 e0be b75f da3e 0f30 0ebd 36fd aebf
00000160: 6a19 2c3f 1a40 a43d 00b1 783e ab82 6e3f
00000170: e0f1 92bf ff72 d5be 4c25 ecbb 83c0 a7bd
00000180: 0e97 3f3f c2e5 403e f2a5 08bd b135 a1bd
00000190: e670 09be 7392 a6be 043f 6dbc 29d2 393e
000001a0: a3bf c43e 6e84 143e 4749 23bf 0884 f2be
000001b0: 59c3 873f ac38 063e 9f93 0e3f 17db a2be
000001c0: c47d dabf 3917 473f e1d9 153f ac90 023f
000001d0: 19cc 483f 4918 aabf c2f5 e4be f94e 503e
000001e0: ff4a e5bd 1fc5 103f 6a38 05be 2acb 8bbe
000001f0: 6a47 3fbe a9f8 523d 5260 3ebe 8ed5 4d3d
00000200: 4cf7 4b3c fb3c 01be 2cc1 ba3e 42e3 b2be
00000210: 22e3 fdbe c471 403f 623f 3abe a0cd 2b3f
00000220: 0c78 a7bd e6d3 bbbf a57b 1e3f ee29 743e
00000230: 9f3a 093f a4b6 6a3f 0d84 9ebf 7c7b 06bf
00000240: 52b1 c13c 8537 72bd 4f2d 443f 47eb 813e
00000250: 6b52 f6bd f97b 18be e003 6abe 0f72 8fbd
00000260: c426 43be 0c36 b0bd b9b5 ea3d 1eb7 20be
00000270: 2ad2 21bf 422a 08bf 4004 83be ead1 ecbd
00000280: 4292 b5be 792b 02bf 8d43 d7be 966d 95be
00000290: 5fee 3bbd 2cc2 c3bd 0d69 17be abd3 1abd
000002a0: 4cc4 863e ddf5 b33e 81b7 b6bd 616e 42bd
000002b0: 8057 033e b526 fa3e 554b 133f a224 82bd
000002c0: 186e cbbc b4b0 9f3c 52ce b1bd ab5c 913d
000002d0: 373f 86bc 1756 03be 6ff5 86be 0566 46be
000002e0: 4373 34bd 8570 153d da41 623d a043 f6bd
000002f0: 5c9d 28be 81ba 13be c6d8 d43c 7154 1e3e
00000300: 3475 203e 65d2 1cbe c6c1 ccbe c820 c23b
00000310: 99c7 553e 9773 e03d 085e 1abe d8e8 97be
00000320: a2f0 93bd e223 153e 1dde 1fbd 09f7 67bd
00000330: 11bf d2ba 2a81 063e 55c2 aa3d ee24 993d
00000340: 8680 6d3e 4858 81bd 9872 833d aeab 1d3f
00000350: 0466 133f d9bd b53e 2b06 db3d 4273 4e3e
00000360: 111d 3f3f 55b5 203f c528 ce3e 75e5 2cbe
00000370: 61aa a23d 382a f33e 7354 053f b4e5 8e3e
00000380: 1177 62be 8804 bb3e 2a76 1c3f b60a 543f
00000390: d86f 563f 781c fd3e a516 913e 63cc 8e3d
000003a0: 59ea 713e 5db2 243f 4568 403f a07a f6bd
000003b0: 5b23 dbbd 6d86 83be b2b7 9b3d 2498 c03e
000003c0: fb67 c9be 5de9 eabe 1f65 8dbe 3f65 e8bd
000003d0: 1e4f a63b 2e9e 48bf 3ef0 3bbf 82e5 ffbe
000003e0: 10ce d1be 0129 36be 2912 44bf d525 efbe
000003f0: f4fb 86be be1a 5d3e d8b4 3f3e e77b 35bf

conv1.bias f4 [6]
-0.111019045 -0.1728105 0.9312435 -0.15019225 0.04807079 -0.1614115
00000000: f45d e3bd 3cf5 30be f965 6e3f ffcb 19be
00000010: e0e5 443d 0e49 25be

conv2.weight f4 [16, 6, 5, 5]
0.023110725 0.23329473 0.07688817 0.20755407 -0.14564747 -0.128639 -0.13780512 -0.07296135
-0.08588514 -0.027770255 -0.20621233 -0.068057775 -0.38458875 -0.37383747 -0.3586107 -0.17933354
-0.4600291 -0.3260588 -0.3003229 -0.10384444 -0.38121393 -0.37235805 -0.30349812 -0.39520285
-0.5616044 0.005339202 0.10115407 -0.077676885 0.24319011 -0.13720214 0.24912721 -0.17927343
0.2245916 0.23345934 0.27898034 -0.09655728 0.2298744 0.03685354 0.32190612 0.18889295
-0.1526862 -0.22631304 -0.035473723 -0.34483466 -0.40408432 -0.23304042 -0.41300714 -0.024571225
0.11527455 0.31193885 -0.07046807 -0.2934826 -0.19972502 -0.010934657 -0.2622886 0.058803286
-0.20201632 -0.02689357 0.08128667 -0.16196774 0.14165679 0.032898705 0.13828139 -0.17441353
-0.25419086 0.20986806 -0.006035546 -0.1088216 -0.052315634 0.1908169 0.2240401 0.16137491
-0.11577619 -0.07439103 -0.12466018 0.18809383 0.015896285 -0.05285012 0.15374099 -0.05633196
-0.1323599 -0.061964456 -0.17552286 -0.26424122 -0.35472023 0.2328284 0.03588112 -0.08671248
-0.04547478 -0.08305528 -0.11791199 -0.0066921385 0.1686561 -0.19419232 -0.13686712 -0.033800393
0.04718312 -0.20144068 0.147202 -0.11667782 0.52452505 0.07273949 0.289899 0.22522478
0.25203818 0.08046336 0.5075197 0.38559866 0.33373088 0.09788032 0.09226337 0.5321236
0.62164253 -0.18787847 0.24672158 -0.26254624 0.2702558 0.03625532 0.7300312 0.26321247
0.4033705 0.18097572 0.066170916 0.17173788 0.32780272 -0.3831993 -0.29359528 -0.21735094
-0.11304082 -0.26156327 -0.07122416 -0.48290795 -0.4735814 -0.21826243 -0.26391354 -0.122498624
-0.090349495 0.06365182 -0.25436312 0.15027596 0.35425147 0.21667178 0.43124196 0.25310653
-0.1286053 0.07377138 0.36552885 0.19470543 0.15911008 -0.20420726 -0.48658833 -0.2916604
-0.1611387 -0.2828134 -0.26473194 0.45040268 0.09670458 -0.26106083 -0.27831212 -0.24654448
0.025624583 -0.33333203 0.10401102 -0.0799613 0.085790895 -0.067414604 0.26096997 0.07814135
0.21028021 -0.010395019 0.015646532 -0.11328775 0.22467244 -0.01761151 0.46593747 -0.030363357
0.06437163 0.14220992 -0.07453252 -0.12129114 -0.06510828 0.027010836 -0.023210099 -0.07534587
-0.20518534 0.110708974 -0.030968932 -0.07748487 0.021950373 0.05500155 0.2853736 0.22512512
-0.07450208 0.0035671266 -0.1790886 -0.06521622 -0.27950785 -0.097246625 -0.29253367 -0.12031691
0.37349963 0.19764137 0.23520148 0.15998206 -0.0064179385 0.22105588 0.055197924 -0.2693356
-0.035181485 0.03299667 0.1325016 -0.26624689 -0.29005402 -0.3889834 -0.077010475 -0.18903051
-0.34328586 -0.21425731 -0.3367666 -0.2959439 -0.11342609 -0.005646549 -0.11600601 0.05170576
-0.077394225 -0.07910054 -0.028984709 -0.25913122 0.16030575 -0.12707868 0.022860473 0.2415007
-0.082920745 0.09416998 0.14060073 0.1587698 0.20963544 -0.033790603 0.17426212 0.24147254
-0.047335256 0.37236997 0.16577536 -0.11458601 -0.093234 -0.026864711 0.22914281 0.28847623
-0.046473175 -0.09777746 -0.06517951 -0.3956491 -0.14025992 0.010379411 0.0064903763 -0.42611304
00000000: b452 bd3c d0e4 6e3e 8b77 9d3d 0e89 543e
00000010: 9c24 15be f1b9 03be c91c 0dbe c36c 95bd
00000020: 8ce4 afbd 727e e3bc 5329 53be e061 8bbd
00000030: d1e8 c4be a067 bfbe d29b b7be 36a3 37be
00000040: ef88 ebbe 2ef1 a6be ecc3 99be 65ac d4bd
00000050: 792e c3be b7a5 bebe 1b64 9bbe 0758 cabe
00000060: 4ec5 0fbf 79f4 ae3b dd29 cf3d 0f15 9fbd
00000070: d406 793e b87e 0cbe 341b 7f3e 7493 37be
00000080: 57fb 653e f70f 6f3e 83d6 8e3e d3bf c5bd
00000090: 3264 6b3e bdf3 163d e1d0 a43e 276d 413e
000000a0: c559 1cbe 9bbe 67be e54c 11bd 2b8e b0be
000000b0: 24e4 cebe 26a2 6ebe ac75 d3be 9849 c9bc
000000c0: 1015 ec3d 73b6 9f3e 9051 90bd 5a43 96be
000000d0: b784 4cbe 4727 33bc b14a 86be b7db 703d
000000e0: 5edd 4ebe e74f dcbc a079 a63d dfda 25be
000000f0: 7a0e 113e cbc0 063d a399 0d3e 7699 32be
00000100: 4e25 82be a7e7 563e d4c5 c5bb dcdd debd
00000110: eb48 56bd 8165 433e c56a 653e 773f 253e
00000120: 111c edbd 535a 98bd d64d ffbd ab9b 403e
00000130: ed38 823c 5e79 58bd 476e 1d3e 57bc 66bd
00000140: 5b89 07be 71ce 7dbd 44bc 33be a04a 87be
00000150: e49d b5be 916a 6e3e 15f8 123d 5096 b1bd
00000160: c343 3abd e318 aabd d77b f1bd ba49 dbbb
00000170: 2fb4 2c3e 5ada 46be e526 0cbe 4872 0abd
00000180: 1643 413d 7746 4ebe 1fbc 163e c8f4 eebd
00000190: 4647 063f 71f8 943d a46d 943e 53a1 663e
000001a0: 260b 813e f9c9 a43d d0ec 013f 306d c53e
000001b0: c6de aa3e 7a75 c83d 94f4 bc3d 4139 083f
000001c0: f723 1f3f 3763 40be 95a4 7c3e 766c 86be
000001d0: f85e 8a3e 7580 143d 53e3 3a3f c9c3 863e
000001e0: 9486 ce3e b351 393e 9e84 873d 0edc 2f3e
000001f0: c2d5 a73e b332 c4be 1f52 96be 3f91 5ebe
00000200: f281 e7bd 9feb 85be f9dd 91bd b63f f7be
00000210: 4379 f2be 3080 5fbe ad1f 87be 8fe0 fabd
00000220: 2809 b9bd e35b 823d e23b 82be f1e1 193e
00000230: 7360 b53e 35df 5d3e bfcb dc3e 2e97 813e
00000240: 1cb1 03be 7315 973d 9926 bb3e dc60 473e
00000250: c1ed 223e b51b 51be 1b22 f9be 8354 95be
00000260: 8b01 25be ebcc 90be f28a 87be 2e9b e63e
00000270: 0d0d c63d c4a9 85be ed7e 8ebe 2876 7cbe
00000280: a5ea d13c 7faa aabe bb03 d53d c0c2 a3bd
00000290: 23b3 af3d ab10 8abd db9d 853e 9208 a03d
000002a0: b253 573e df4f 2abc 282d 803c 6803 e8bd
000002b0: 8810 663e 0346 90bc 5b8f ee3e 93bc f8bc
000002c0: 46d5 833d 7a9f 113e 81a4 98bd 7d67 f8bd
000002d0: 7d57 85bd d445 dd3c 1b23 bebc ef4e 9abd
000002e0: 1b1c 52be 63bb e23d 8fb2 fdbc 63b0 9ebd
000002f0: 45d1 b33c 4e49 613d 7d1c 923e 3387 663e
00000300: 8c94 98bd 74c6 693b 0163 37be 1590 85bd
00000310: a71b 8fbe 3d29 c7bd f9c6 95be b668 f6bd
00000320: 583b bf3e 8062 4a3e a8d8 703e 56d2 233e
00000330: 924d d2bb 795c 623e 3817 623d 5be6 89be
00000340: 761a 10bd 8427 073d 80ae 073e 8351 88be
00000350: f681 94be d528 c7be abb7 9dbd 3791 41be
00000360: 2ac3 afbe 4566 5bbe ac6c acbe f585 97be
00000370: f04b e8bd b006 b9bb 8f94 edbd 6bc9 533d
00000380: dd80 9ebd 77ff a1bd 5771 edbc d9ac 84be
00000390: 3127 243e ea20 02be e345 bb3c f64b 773e
000003a0: 5ad2 a9bd 31dc c03d a3f9 0f3e 8d94 223e
000003b0: acaa 563e 0468 0abd c571 323e 9444 773e
000003c0: 9de2 41bd 47a7 be3e 04c1 293e 12ac eabd
000003d0: 78f1 bebd 6213 dcbc 6aa4 6a3e 28b3 933e
000003e0: a85a 3ebd 8d3f c8bd d67c 85bd 8592 cabe
000003f0: 4ca0 0fbe 680e 2a3c 39ad d43b 7d2b dabe

conv2.bias f4 [16]
1.1348606 -1.8439193 0.29721916 0.28936914 0.69791967 -1.3481349 0.7618774 -0.014436624
0.21178709 0.16602072 -0.5813903 -0.5334918 -1.648644 0.40594608 -0.32022688 0.09913103
00000000: 1d43 913f 8c05 ecbf 1c2d 983e 3128 943e
00000010: ddaa 323f af8f acbf 660a 433f 9787 6cbc
00000020: b7de 583e 5601 2a3e ffd5 14bf eb92 08bf
00000030: c406 d3bf 2ad8 cf3e c7f4 a3be 3605 cb3d

fc1.weight f4 [120, 400]
-0.21593241 -0.09152566 -0.042334843 -0.1709107 -0.109510206 0.047174003 -0.032261025 0.085948095
-0.067288 -0.20364292 0.18323986 0.054035008 -0.06673662 0.005445456 -0.08080276 0.10884053
0.017652074 0.15140037 0.10701406 -0.005887395 0.0071839765 0.09720826 -0.10596636 0.17877279
0.20293917 -0.07969472 -0.16961673 -0.10236914 -0.051815744 0.1405245 0.06084821 0.022951607
-0.11715515 -0.09490151 -0.123831086 -0.04667711 -0.20815256 -0.22012217 -0.14630827 -0.08782934
0.0025762543 -0.07583777 0.12177121 -0.06936095 0.06287285 0.108292535 -0.02947531 0.07992611
0.2281818 0.05528495 0.02929588 0.07704374 0.0028321254 -0.11660954 -0.050490733 -0.035915617
0.0644324 0.05613997 0.13523751 0.07013437 0.011227061 -0.027685467 -0.061390914 0.20273113
0.1001228 0.04906507 -0.01697555 0.1964613 0.13067794 -0.0483615 0.11537287 0.017729882
0.11271891 0.18813746 -0.04480383 -0.05346018 -0.09892511 -0.11959093 0.07055641 0.020372603
-0.12475268 0.09095846 -0.010072655 0.10368964 -0.11171501 0.006374005 0.0035437343 0.11279529
0.013042665 -0.048359036 0.029112758 0.0484443 0.14876679 0.07165843 -0.009211082 -0.16893907
0.08392668 0.01938782 -0.007207053 0.009430836 0.008154146 -0.016141828 -0.12093153 0.077639036
-0.0826589 -0.062299456 0.06548321 -0.11775387 0.03434149 -0.005449308 -0.04303342 -0.072817676
-0.0067452965 -0.10095151 -0.027758747 -0.17515612 -0.029380849 -0.13870086 -0.058122315 -0.01108978
-0.055748917 -0.15348731 -0.0028798466 -0.17203334 -0.025601486 -0.06226017 0.08040173 -0.052071117
-0.00830749 -0.08157121 0.17481692 -0.13230693 0.09776966 0.073416874 0.08165415 0.021907408
0.20843755 0.13997564 0.046155274 -0.011736357 -0.070471264 0.03416199 0.008343708 0.04014614
-0.017447926 0.18022133 0.033389024 -0.0018779485 0.3024014 -0.062483124 -0.050100904 0.15470685
0.14161839 0.12989905 0.040939454 0.06389965 0.122425 -0.20447837 0.088059455 0.02660446
0.096779905 -0.044942614 -0.104285635 0.058122247 0.14142932 -0.014348904 0.09617754 0.12674576
0.01175372 -0.052893206 -0.1175996 0.065798484 0.092249446 0.13308463 0.112443574 0.16492939
0.09158121 0.17660011 0.21020238 -0.040322784 -0.0652827 0.043969814 -0.026797453 0.14829835
-0.13770397 0.08529919 -0.023922797 0.18105564 -0.15586738 -0.040441856 -0.0037651015 0.20080616
0.20699537 -0.012080751 0.05436379 0.3123828 0.14666902 0.12836231 0.009207604 0.14909872
-0.17646563 -0.009759173 0.06331241 0.14265077 -0.101736695 -0.079500504 -0.071526885 -0.124381915
-0.14002167 0.07682184 -0.27980998 -0.24253325 -0.03075508 0.13036223 0.05028796 -0.057300795
0.095493056 -0.1321193 0.10473506 0.009791917 -0.133136 -0.23295388 -0.13096963 -0.11557121
0.016379932 0.028966423 -0.06310836 -0.14993678 -0.004808531 -0.014773704 -0.13354583 -0.09974223
-0.08613028 0.03542661 0.22345532 0.029534789 -0.15079612 -0.08173917 0.008189737 0.0045979633
0.095820904 -0.10572787 0.011149187 -0.16246091 -0.05121381 -0.05312149 -0.07773468 -0.053724457
0.055279206 0.17873919 -0.000353866 0.06775662 0.03930157 -0.12095983 0.112610176 -0.1519969
00000000: 631d 5dbe ce71 bbbd 4d67 2dbd 3703 2fbe
00000010: e346 e0bd 8739 413d 2324 04bd 8e05 b03d
00000020: 4ace 89bd c587 50be 3ba3 3b3e d053 5d3d
00000030: 36ad 88bd cc6f b23b eb7b a5bd c9e7 de3d
00000040: 159b 903c b308 1b3e 302a db3d 0ceb c0bb
00000050: 9067 eb3b 2015 c73d e404 d9bd 3710 373e
00000060: 49cf 4f3e fc36 a3bd 02b0 2dbe e9a6 d1bd
00000070: bf3c 54bd a8e5 0f3e f93b 793d 0205 bc3c
00000080: 0aef efbd b95b c2bd 279b fdbd 7f30 3fbd
00000090: f225 55be b567 61be d6d1 15be dedf b3bd
000000a0: 60d6 283b d550 9bbd 2f63 f93d 1d0d 8ebd
000000b0: 7bc3 803d 7ac8 dd3d 3576 f1bc 4db0 a33d
000000c0: 7da8 693e 7972 623d eafd ef3c 1cc9 9d3d
000000d0: 2e9b 393b fcd0 eebd 5fcf 4ebd 411c 13bd
000000e0: 22f5 833d 06f3 653d b47b 0a3e 9ca2 8f3d
000000f0: b5f1 373c a2cc e2bc 0a75 7bbd c098 4f3e
00000100: 2f0d cd3d 74f8 483d 4f10 8bbc 272d 493e
00000110: 70d0 053e b516 46bd 9c48 ec3d 423e 913c
00000120: 2cd9 e63d 1ba7 403e 3984 37bd 10f9 5abd
00000130: 4099 cabd 17ec f4bd e17f 903d 72e4 a63c
00000140: 557e ffbd 6e48 ba3d c707 25bc 3c5b d43d
00000150: d7ca e4bd 08dd d03b ff3d 683b 3801 e73d
00000160: e7b0 553c 2014 46bd e17d ee3c 886d 463d
00000170: 5256 183e a8c1 923d 14ea 16bc 5dfe 2cbe
00000180: c0e1 ab3d 35d3 9e3c 2429 ecbb cb83 1a3c
00000190: f898 053c de3b 84bc f3aa f7bd 3701 9f3d
000001a0: 1249 a9bd b72d 7fbd 101c 863d f128 f1bd
000001b0: aaa9 0c3d 1c90 b2bb d043 30bd 6f21 95bd
000001c0: a607 ddbb aabf cebd 5066 e3bc 205c 33be
000001d0: 1bb0 f0bc 9907 0ebe aa11 6ebd e9b1 35bc
000001e0: fa58 64bd c72b 1dbe cfbb 3cbb 8229 30be
000001f0: 35ba d1bc 8504 7fbd aaa9 a43d 8648 55bd
00000200: 231c 08bc ce0e a7bd 3503 333e 787b 07be
00000210: 763b c83d 965b 963d 4a3a a73d 2a77 b33c
00000220: a770 553e c655 0f3e 500d 3d3d d949 40bc
00000230: 3d53 90bd 71ed 0b3d 0cb4 083c 4770 243d
00000240: f4ee 8ebc f18b 383e eec2 083d 7f25 f6ba
00000250: 5bd4 9a3e 4eee 7fbd 9b36 4dbd 796b 1e3e
00000260: 6904 113e 4204 053e 21b0 273d d2dd 823d
00000270: f5b9 fa3d c762 51be 8458 b43d 99f1 d93c
00000280: 8b34 c63d bf15 38bd b593 d5bd 9811 6e3d
00000290: d9d2 103e aa17 6bbc bbf8 c43d a4c9 013e
000002a0: ad92 403c 8ca6 58bd 0fd8 f0bd 5bc1 863d
000002b0: 47ed bc3d 5647 083e d148 e63d 40e3 283e
000002c0: ee8e bb3d a9d6 343e 4b3f 573e 8129 25bd
000002d0: f0b2 85bd b119 343d 5586 dbbc 86db 173e
000002e0: 4502 0dbe 57b1 ae3d bef9 c3bc a666 393e
000002f0: b39b 1fbe 5ca6 25bd ecbf 76bb 21a0 4d3e
00000300: 98f6 533e 58ee 45bc 91ac 5e3d a3f0 9f3e
00000310: 6730 163e 6971 033e 7edb 163c 56ad 183e
00000320: 68b3 34be f0e4 1fbc f0a9 813d 0b13 123e
00000330: 545b d0bd 29d1 a2bd b07c 92bd f2bb febd
00000340: d761 0fbe c554 9d3d 4143 8fbe a35a 78be
00000350: 14f2 fbbc ad7d 053e bffa 4d3d 3db4 6abd
00000360: dd91 c33d 484a 07be 567f d63d 476e 203c
00000370: ce54 08be 768b 6ebe e71c 06be 99b0 ecbd
00000380: 352f 863c fe4a ed3c f53e 81bd 0789 19be
00000390: e290 9dbb 680d 72bc 3dc0 08be a745 ccbd
000003a0: 1265 b0bd 7e1b 113d 79d1 643e f1f2 f13c
000003b0: 4c6a 1abe de66 a7bd 3f2e 063c 83aa 963b
000003c0: c03d c43d da87 d8bd 14ab 363c 275c 26be
000003d0: 92c5 51bd eb95 59bd 5c33 9fbd 2d0e 5cbd
000003e0: 736c 623d 6807 373e 1787 b9b9 fcc3 8a3d
000003f0: affa 203d cab9 f7bd 2aa0 e63d 13a5 1bbe

fc1.bias f4 [120]
-0.07269111 -0.16306286 -0.094904505 -0.030010836 0.08735611 0.108682595 0.03680653 -0.011056352
0.038101677 0.06320011 0.20574689 -0.07962917 -0.16892289 0.0003216576 0.12382176 0.03823345
-0.13159506 0.034480266 0.16112508 0.19428003 0.17399034 0.21710917 -0.21116236 -0.0043659993
-0.10842233 0.021004079 0.057154898 -0.19474094 0.017884523 -0.09955355 0.09702782 0.33421752
0.01911679 0.13557339 -0.23121426 0.27979964 -0.013647178 0.03593172 -0.15004937 0.14537592
-0.09187571 0.2408594 0.029523756 0.004933537 -0.17969453 0.33362016 -0.21741392 -0.019639831
0.06587478 0.0037810504 0.049361814 0.022847706 -0.14466098 -0.019356672 -0.09036309 -0.03192699
-0.022279864 0.12754795 -0.25498295 0.1962885 0.2033744 -0.05203357 0.060863666 0.16165222
-0.17033552 -0.102809094 0.29099143 0.1741085 -0.119400606 0.1168798 0.22637191 0.08686575
0.4204459 -0.15744056 0.16430317 -0.047305793 0.016550679 -0.12020375 0.21529576 0.05557727
-0.05508139 0.0027225916 -0.103430904 -0.0049785273 0.114590034 -0.06326864 0.22422886 0.14710696
-0.038925726 -0.012157698 0.044070352 -0.010638221 -0.08222091 0.038899664 0.0334323 -0.21746239
0.16058515 0.12235715 0.103874706 -0.21204731 -0.07532206 0.03546362 -0.11138507 0.013316543
0.26762995 -0.043641377 -0.19096886 -0.15190358 -0.026063878 -0.19083545 -0.17978847 -0.31353292
-0.18873331 -0.17692411 -0.075030886 0.0972725 0.01599878 0.12882875 0.04323735 0.11700644
00000000: 14df 94bd f3f9 26be 4b5d c2bd 49d9 f5bc
00000010: c3e7 b23d fb94 de3d 72c2 163d b425 35bc
00000020: 8110 1c3d 0f6f 813d 50af 523e 9e14 a3bd
00000030: 1ffa 2cbe 27a4 a839 4396 fd3d ae9a 1c3d
00000040: dbc0 06be 2e3b 0d3d f9fd 243e 58f1 463e
00000050: 862a 323e de51 5e3e f23a 58be a810 8fbb
00000060: 870c debd bf10 ac3c 411b 6a3d 2b6a 47be
00000070: 9082 923c bbe2 cbbd 86b6 c63d 8f1e ab3e
00000080: d09a 9c3c c0d3 0a3e 6ec3 6cbe e641 8f3e
00000090: 6a98 5fbc 242d 133d 8ba6 19be 6ddd 143e
000000a0: 5529 bcbd d9a3 763e cedb f13c 82a9 a13b
000000b0: d801 38be 43d0 aa3e c1a1 5ebe b6e3 a0bc
000000c0: 5be9 863d 80cb 773b 9d2f 4a3d 1d2b bb3c
000000d0: 0222 14be e291 9ebc 4910 b9bd e0c5 02bd
000000e0: 4384 b6bc ee9b 023e 208d 82be daff 483e
000000f0: 6141 503e 2721 55bd 2e4c 793d 2988 253e
00000100: 6f6c 2ebe 938d d2bd d4fc 943e 8049 323e
00000110: 4e88 f4bd ad5e ef3d 0ace 673e ace6 b13d
00000120: af44 d73e 1938 21be 173f 283e b8c3 41bd
00000130: 4a95 873c 622d f6bd 7e76 5c3e fea4 633d
00000140: 069d 61bd 826d 323b 95d3 d3bd ea22 a3bb
00000150: 2eae ea3d fd92 81bd 409c 653e 35a3 163e
00000160: 9570 1fbd 1531 47bc 1d83 343d ef4b 2ebc
00000170: 7063 a8bd 4155 1f3d 4ff0 083d 76ae 5ebe
00000180: 6f70 243e 6396 fa3d 43bc d43d ee22 59be
00000190: 7442 9abd 4d42 113d db1d e4bd a12d 5a3c
000001a0: cb06 893e 4dc1 32bd 578d 43be 9d8c 1bbe
000001b0: ea83 d5bc 5e6a 43be 781a 38be 6387 a0be
000001c0: 4e43 41be 982b 35be cba9 99bd ce36 c73d
000001d0: e00f 833c afeb 033e a619 313d 13a1 ef3d

fc2.weight f4 [84, 120]
0.0021421302 -0.035973463 -0.1640277 0.032834902 0.07001051 0.1663045 0.121072136 0.29013664
-0.09493943 0.066459656 -0.0071762693 -0.08299553 0.09240036 -0.10723581 -0.008192967 0.023651099
0.13130768 0.01037222 0.20182356 0.12085364 0.06534322 0.021623012 -0.02590546 0.24180032
0.092189975 0.016329264 0.2080151 0.03256751 -0.10758581 0.011473336 0.16739519 -0.07248741
-0.031766746 0.0064774067 0.1800367 -0.10667358 0.060386606 -0.12518896 -0.26211554 -0.18510783
-0.031673614 0.029116822 -0.042137925 -0.094075724 0.05516902 -0.12013736 -0.04064853 -0.036527134
0.25008237 0.16542235 0.08768759 -0.06410754 0.14309654 0.07955803 0.19755864 0.06333627
-0.068085715 -0.07538179 -0.0031854885 0.10238567 0.08639129 -0.05684518 -0.05116323 -0.15118143
0.11229374 -0.13123013 -0.1967628 0.045462903 -0.18798403 0.07672284 0.034037095 -0.13185295
-0.078107744 -0.06887889 -2.0679752e-05 -0.0120611 0.09339294 -0.02810404 0.0623385 -0.036406223
-0.30717686 0.05460075 -0.10046949 -0.1834533 0.13690285 0.17452501 -0.11387843 -0.1827624
0.11582735 0.103363134 -0.0051291566 0.12883562 0.08617379 0.09110354 -0.05334211 -0.31873846
-0.102130786 0.14590277 -0.107517235 0.15294676 0.020714799 0.024873018 -0.014436181 -0.15631922
0.07365524 0.17905991 -0.05954335 -0.12074901 -0.064733356 -0.034574542 -0.17744751 0.096597016
0.17370172 0.039487395 -0.11806018 -0.19116837 0.0071271653 0.18862337 0.045683205 0.113346495
-0.12819472 0.105874084 0.090705894 -0.115736574 0.0020120915 -0.42940816 -0.0344784 -0.050534938
0.15282373 0.019264046 -0.04438766 0.2302433 0.0914292 0.15058324 0.04911299 -0.08346754
0.11076687 0.035914864 -0.018525545 0.24734691 -0.19689648 0.22826089 -0.097036 -0.27795994
-0.03570839 0.06865201 -0.09439637 0.09102335 0.07637834 0.025876222 -0.0125370985 -0.01608711
-0.207407 0.064866185 0.04872313 -0.21361007 -0.13680887 -0.10031127 -0.22959404 0.102525815
-0.012699196 -0.12629797 0.10184126 -0.0016350237 -0.05801841 -0.0691224 0.09296484 0.070529066
0.13521497 -0.03384963 -0.31236324 -0.035639174 0.07591427 -0.055547472 0.04034111 -0.07567057
0.042651284 -0.009542308 -0.1462678 -0.036707323 0.110603966 0.12328517 -0.017942889 0.19864918
0.08048341 0.10994236 0.031602908 -0.034756396 -0.22547697 0.1438835 0.08426252 0.03751964
0.079765774 0.1505722 -0.22388645 -0.19044352 -0.10105687 -0.055265326 -0.12645079 0.17986743
0.039114285 0.023983797 0.036139842 0.064252645 -0.24226594 0.14483741 0.013193554 -0.011302772
0.16092864 -0.08890712 -0.122671716 -0.0125452755 0.08967257 0.22429311 -0.08009612 0.023043344
0.062917165 0.08770829 -0.10966187 0.2891391 0.033119094 -0.030135501 -0.043267455 0.08666358
-0.04423352 0.031757917 -0.0542195 -0.3606041 -0.02660225 0.011694086 -0.28581688 -0.17607868
0.02333282 -0.13772963 0.025404686 -0.10191369 -0.08090461 -0.014801012 0.18481857 -0.19978985
0.0054278905 -0.11775189 0.20349762 0.058285963 0.0092639355 -0.23820236 -0.25622135 -0.29246747
-0.08645045 0.33651343 0.22198465 -0.19053228 -0.010987547 0.04811449 0.32714912 -0.08693776
00000000: fb62 0c3b e958 13bd e1f6 27be e47d 063d
00000010: ac61 8f3d ba4b 2a3e abf4 f73d ca8c 943e
00000020: 9b6f c2bd 001c 883d e926 ebbb 8ff9 a9bd
00000030: 663c bd3d 739e dbbd cb3b 06bc f3bf c13c
00000040: 8575 063e 3ef0 293c d6aa 4e3e 1d82 f73d
00000050: abd2 853d be22 b13c b037 d4bc 819a 773e
00000060: 19ce bc3d f3c4 853c e901 553e 8265 053d
00000070: f355 dcbd a9fa 3b3c a569 2b3e 4774 94bd
00000080: d91d 02bd 6d40 d43b 8a5b 383e ae77 dabd
00000090: f257 773d 8931 00be 0234 86be e88c 3dbe
000000a0: 31bc 01bd 6786 ee3c d198 2cbd c6aa c0bd
000000b0: e9f8 613d 940a f6bd 137f 26bd 7a9d 15bd
000000c0: cc0a 803e 7a64 293e 8d95 b33d d04a 83bd
000000d0: e687 123e 52ef a23d d04c 4a3e 72b6 813d
000000e0: 8670 8bbd c561 9abd a1c3 50bb 94af d13d
000000f0: ebed b03d 7ed6 68bd 8990 51bd 4ecf 1abe
00000100: 43fa e53d 3161 06be 307c 49be 4f37 3a3d
00000110: e37e 40be dd20 9d3d 7b6a 0b3d 7604 07be
00000120: f4f6 9fbd 6010 8dbd 6e79 adb7 ec9b 45bc
00000130: cc44 bf3d 723a e6bc a856 7f3d b11e 15bd
00000140: 4946 9dbe 09a5 5f3d f3c2 cdbd 2fdb 3bbe
00000150: 4330 0c3e afb6 323e 1839 e9bd 1126 3bbe
00000160: e436 ed3d 0db0 d33d 7c12 a8bb 7ced 033e
00000170: e27b b03d 7e94 ba3d 427d 5abd b031 a3be
00000180: f229 d1bd 8967 153e ff31 dcbd 139e 1c3e
00000190: 15b2 a93c 80c2 cb3c bb85 6cbc 2512 20be
000001a0: 8fd8 963d 7b5b 373e bae3 73bd 424b f7bd
000001b0: ec92 84bd 099e 0dbd cdb4 35be a8d4 c53d
000001c0: ddde 313e 89bd 213d 89c9 f1bd a4c1 43be
000001d0: ff8a e93b 7c26 413e 501e 3b3d 3522 e83d
000001e0: 7a45 03be 83d4 d83d 03c4 b93d 4c07 edbd
000001f0: 4bdd 033b 63db dbbe 3939 0dbd b9fd 4ebd
00000200: d37d 1c3e a2cf 9d3c d6cf 35bd e6c4 6b3e
00000210: 3b3f bb3d 7e32 1a3e b42a 493d 08f1 aabd
00000220: bed9 e23d 771b 133d e2c2 97bc 8248 7d3e
00000230: 3b9f 49be 39bd 693e cfba c6bd c450 8ebe
00000240: f642 12bd 6d99 8c3d e252 c1bd 736a ba3d
00000250: 3f6c 9c3d 5ffa d33c 6768 4dbc 1dc9 83bc
00000260: 8062 54be 90d8 843d e891 473d 99bc 5abe
00000270: a017 0cbe ff6f cdbd b31a 6bbe 0ef9 d13d
00000280: 4a10 50bc 4154 01be 2792 d03d 4b4e d6ba
00000290: b6a4 6dbd 0b90 8dbd 5a64 be3d 8b71 903d
000002a0: cb75 0a3e e9a5 0abd 13ee 9fbe 62fa 11bd
000002b0: f178 9b3d bf85 63bd b83c 253d 2cf9 9abd
000002c0: 1db3 2e3d 5757 1cbc 3ac7 15be 6b5a 16bd
000002d0: 5584 e23d ef7c fc3d f7fc 92bc b16a 4b3e
000002e0: 7cd4 a43d 7629 e13d 0d72 013d b95c 0ebd
000002f0: 6fe3 66be 3256 133e d491 ac3d 32ae 193d
00000300: 3d5c a33d 992f 1a3e 7d42 65be a003 43be
00000310: e7f6 cebd e55d 62bd 517c 01be 2b2f 383e
00000320: 4d36 203d ab79 c43c 5f07 143d e496 833d
00000330: 9014 78be 4250 143e c729 583c 432f 39bc
00000340: 7aca 243e f014 b6bd 4f3b fbbd b38a 4dbc
00000350: 41a6 b73d 18ad 653e 6f09 a4bd 65c5 bc3c
00000360: b7da 803d 67a0 b33d 6796 e0bd 0a0a 943e
00000370: e3a7 073d bade f6bc 3739 31bd ad7c b13d
00000380: 352e 35bd 9714 023d 4415 5ebd 1aa1 b8be
00000390: f6ec d9bc 8d98 3f3c 9756 92be f84d 34be
000003a0: 7824 bf3c ff08 0dbe 7d1d d03c 20b8 d0bd
000003b0: 51b1 a5bd f27f 72bc 1441 3d3e b695 4cbe
000003c0: 72dc b13b e727 f1bd ae61 503e 43bd 6e3d
000003d0: c3c7 173c 52eb 73be 722f 83be 4cbe 95be
000003e0: ef0c b1bd 7d4b ac3e f24f 633e e51a 43be
000003f0: 1d05 34bc b313 453d 1780 a73e 6d0c b2bd

fc2.bias f4 [84]
-0.09730946 0.19402164 0.37495425 -0.0012905179 0.2782968 -0.011145515 -0.11601961 -0.11329679
0.009811424 -0.11756407 -0.09819374 0.19279985 -0.082411714 -0.023407595 -0.029902037 0.2972872
-0.11974774 -0.34716058 0.02611299 0.18027233 -0.03754466 0.35844442 0.43847975 0.05767367
0.044619758 0.08828413 -0.058305956 0.22264326 -0.06388488 -0.028622365 0.031567466 -0.005821966
-0.2690985 -0.46955127 -0.1425881 -0.0058683143 -0.1112746 0.21000421 -0.01001256 0.28812984
0.43246248 0.2508713 0.2000411 -0.016123503 -0.2740535 -0.22689822 0.017302407 0.16702488
0.18512452 -0.020387715 -0.10596155 0.14902613 0.13178042 -0.10886446 -0.096867494 -0.10282175
-0.37721276 -0.06880153 -0.33433297 -0.19654968 0.4639696 0.30037555 0.14779541 -0.010509062
0.34681875 0.13101195 0.17188634 -0.0719747 0.25065035 0.42116052 0.259812 -0.22906438
-0.45956448 -0.0854143 0.5813021 0.04638853 0.407727 0.081699796 -0.19719662 0.026660046
0.36072874 -0.06884338 0.11809553 0.10431034
00000000: 2f4a c7bd 9cad 463e 01fa bf3e 9826 a9ba
00000010: eb7c 8e3e ae9b 36bc b09b edbd 2608 e8bd
00000020: 18c0 203c 6ec5 f0bd cd19 c9bd 536d 453e
00000030: 79c7 a8bd 49c1 bfbc 1ef5 f4bc 0736 983e
00000040: 4e3e f5bd 08bf b1be e9ea d53c 4f99 383e
00000050: 6ec8 19bd 0786 b73e 6b80 e03e 3a3b 6c3d
00000060: 35c3 363d 4fce b43d 3ad2 6ebd 98fc 633e
00000070: 13d6 82bd 7379 eabc e34c 013d 31c6 bebb
00000080: 47c7 89be 0669 f0be 9d02 12be fd4a c0bb
00000090: f0e3 e3bd 580b 573e b80b 24bc c185 933e
000000a0: b96b dd3e 3472 803e 93d7 4c3e 7015 84bc
000000b0: be50 8cbe 0258 68be c7bd 8d3c 9208 2b3e
000000c0: 4891 3d3e 2304 a7bc 5e02 d9bd 4e9a 183e
000000d0: 72f1 063e 54f4 debd 7762 c6bd 3694 d2bd
000000e0: 0822 c1be d1e7 8cbd b12d abbe 5244 49be
000000f0: 6c8d ed3e d3ca 993e ae57 173e 332e 2cbc
00000100: 3a92 b13e ff27 063e f902 303e 7967 93bd
00000110: 3e55 803e 5aa2 d73e 1406 853e da8f 6abe
00000120: 094c ebbe b1ed aebd 37d0 143f e601 3e3d
00000130: 98c1 d03e 3952 a73d e9ed 49be 2b66 da3c
00000140: 70b1 b83e c2fd 8cbd 12dc f13d a9a0 d53d

fc3.weight f4 [10, 84]
0.09623645 -0.08652606 0.06451283 0.11022507 -0.22141382 0.17060718 0.24741 0.4006271
0.0045373715 -0.07527832 0.06272015 0.33974522 0.24664879 -0.1752858 0.17869529 0.30823785
-0.29452178 -0.2665885 0.12489746 0.2303146 0.5102106 -0.35132936 -0.029823821 -0.14635262
-0.1795764 0.3033191 0.18121536 -0.07666846 -0.124997064 0.13038717 -0.08128139 -0.18154132
0.08039795 0.24065135 -0.04730001 0.19344184 0.124522746 -0.2817277 0.50233793 -0.09841664
-0.19631633 -0.44588766 -0.15306525 -0.25409043 0.33665648 0.22319631 -0.43266273 -0.379253
-0.008856712 -0.4485282 0.35679638 0.04038883 -0.07944122 0.23567125 0.15086472 0.10090432
-0.15052342 0.29061013 0.075987 0.09575582 -0.34047887 -0.10749408 0.09350558 0.38635212
0.08690643 -0.036162186 -0.13853045 -0.050607465 0.12084139 -0.38738075 0.17422591 -0.15120119
0.28515598 -0.44732475 -0.08889606 0.18357614 0.15098023 0.3051414 0.13688056 0.041809786
0.10506376 0.2070287 -0.097830154 0.04269648 0.2612385 -0.16871443 -0.28633478 -0.27472788
-0.06864827 0.080173425 -0.36025432 0.15735307 -0.2603705 0.2578547 -0.024831818 -0.26525044
0.06688597 -0.0029346922 0.2777232 -0.12852934 0.4341036 0.35101557 -0.28135166 0.21053047
-0.25975028 -0.080729805 -0.012048539 0.11413379 -0.14375775 -0.14661379 0.10860703 -0.31326467
0.12957597 -0.039975505 0.18427557 0.4571944 0.27057487 0.037880525 0.18616518 0.2218805
-0.17561626 -0.5170369 0.20755573 -0.003800887 -0.019933596 -0.006830493 0.2884694 0.11911273
0.38490123 0.18276824 -0.2598853 -0.07177373 -0.16062348 0.0876541 -0.119238056 0.21351543
0.17377713 -0.25948808 0.06150373 -0.2661099 0.18687163 0.16258816 0.17941253 0.14961234
-0.30772182 0.091875605 0.1312932 -0.001578715 -0.032751042 0.021456223 -0.2627835 0.09911918
0.010578369 -0.40174994 -0.11517778 -0.09532632 0.1277689 0.21708554 -0.45845315 0.24735814
-0.38889202 -0.50632554 0.49548268 -0.023963675 -0.2656832 -0.06983801 -0.5232085 0.28024638
0.28413278 0.13613221 -0.13657422 0.23059218 -0.40501815 -0.34625944 0.14444543 -0.33525422
0.07009386 0.071770824 0.1903753 0.13818473 -0.12658766 -0.39162868 0.06802818 0.23140813
0.332502 0.20659527 0.19106193 -0.28683048 0.24776353 -0.269777 0.13252082 -0.4361808
0.15490937 0.1929555 0.42458135 0.26719028 -0.2415723 -0.46043515 0.2546991 -0.2625639
0.18511212 0.4572722 0.25307938 -0.2851889 0.11660742 0.027886711 -0.14098905 -0.13560732
-0.30801818 0.31294453 0.33836728 0.39593887 -0.14207195 -0.086299405 -0.21718901 -0.33448955
0.31845596 0.061909568 -0.068376824 -0.5053902 -0.4758637 0.4293913 0.0029576393 0.21741383
-0.31486836 -0.2096614 0.058186773 -0.37975442 0.3152891 -0.26539633 0.2801492 -0.35543033
-0.24291009 0.47372255 -0.16810583 -0.071054235 -0.026913378 0.20145418 -0.01622526 0.38599685
-0.13595198 0.055181738 -0.20065801 -0.04281411 0.22326608 0.1079847 -0.06951232 -0.15855175
0.11971841 0.54026264 -0.045313526 0.092609 -0.104691386 0.10524805 0.0949132 -0.24739084
00000000: 9e17 c53d 9334 b1bd 4d1f 843d aebd e13d
00000010: 4eba 62be a6b3 2e3e 0c59 7d3e ff1e cd3e
00000020: 3bae 943b 852b 9abd 6c73 803d 16f3 ad3e
00000030: 8091 7c3e 1f7e 33be e6fb 363e 5ad1 9d3e
00000040: 8fcb 96be 4a7e 88be 3dca ff3d 97d7 6b3e
00000050: 299d 023f 71e1 b3be 1651 f4bc 76dd 15be
00000060: e0e2 37be a44c 9b3e 8590 393e 5b04 9dbd
00000070: 76fe ffbd 3784 053e db76 a6bd f8e5 39be
00000080: aea7 a43d 4f6d 763e a8bd 41bd 9e15 463e
00000090: c805 ff3d 9d3e 90be 3899 003f aa8e c9bd
000000a0: 2607 49be 634b e4be 23bd 1cbe 2418 82be
000000b0: 3d5e ac3e 938d 643e f885 ddbe 732d c2be
000000c0: be1b 11bc 7da5 e5be 04ae b63e c26e 253d
000000d0: 14b2 a2bd ce53 713e 487c 1a3e eda6 ce3d
000000e0: d022 1abe daca 943e 129f 9b3d a11b c43d
000000f0: 3f53 aebe db25 dcbd db7f bf3d f2cf c53e
00000100: 00fc b13d cd1e 14bd edda 0dbe c649 4fbd
00000110: b17b f73d c556 c6be 4768 323e 7cd4 1abe
00000120: f7ff 913e c007 e5be 230f b6bd 62fb 3b3e
00000130: 909a 1a3e 7e3b 9c3e 6b2a 0c3e bd40 2b3d
00000140: ab2b d73d 55ff 533e 2d5b c8bd 81e2 2e3d
00000150: 0dc1 853e 7ac3 2cbe 799a 92be 22a9 8cbe
00000160: 7797 8cbd f731 a43d 4173 b8be 2a21 213e
00000170: 484f 85be 8805 843e 196c cbbc e8ce 87be
00000180: 83fb 883d f753 40bb bc31 8e3e 329d 03be
00000190: d442 de3e 50b8 b33e 530d 90be 4d95 573e
000001a0: fdfd 84be ab55 a5bd 3c67 45bc fabe e93d
000001b0: 3b35 13be ed21 16be 5d6d de3d 3a64 a0be
000001c0: 90af 043e 5bbd 23bd bcb2 3c3e 6215 ea3e
000001d0: ca88 8a3e 9c28 1b3d 16a2 3e3e a434 633e
000001e0: c0d4 33be 885c 04bf 7d89 543e 4d18 79bb
000001f0: c84b a3bc 54d2 dfbb 43b2 933e 60f1 f33d
00000200: c611 c53e 9927 3b3e b00f 85be 1bfe 92bd
00000210: 7b7a 24be fe83 b33d 1533 f4bd caa3 5a3e
00000220: a2f2 313e 9fdb 84be 56eb 7b3d 8f3f 88be
00000230: 475b 3f3e 837d 263e ebb7 373e fa33 193e
00000240: b78d 9dbe 4729 bc3d ba71 063e e3ec ceba
00000250: f525 06bd f6c4 af3c 8f8b 86be fffe ca3d
00000260: e550 2d3c 2bb2 cdbe 54e2 ebbd 723a c3bd
00000270: dad5 023e ac4b 5e3e 5fba eabe 744b 7d3e
00000280: db1c c7be 8d9e 01bf e8af fd3e 784f c4bc
00000290: a107 88be 3b07 8fbd fef0 05bf 747c 8f3e
000002a0: da79 913e 3e66 0b3e 1dda 0bbe 5b20 6c3e
000002b0: 8a5e cfbe eb48 b1be 81e9 133e 71a6 abbe
000002c0: 5f8d 8f3d 95fc 923d bef1 423e 4c80 0d3e
000002d0: 32a0 01be 8e83 c8be 5c52 8b3d 41f6 6c3e
000002e0: b43d aa3e b68d 533e bda5 433e 72db 92be
000002f0: b9b5 7d3e 3620 8abe 8ab3 073e 1753 dfbe
00000300: 90a0 1e3e 2096 453e ba62 d93e 2acd 883e
00000310: bb5e 77be 28be ebbe ec67 823e c76e 86be
00000320: 088e 3d3e 951f ea3e 9f93 813e 4804 92be
00000330: dfcf ee3d ac72 e43c 6f5f 10be a5dc 0abe
00000340: 8fb4 9dbe 443a a03e 7a3e ad3e 80b8 ca3e
00000350: 4f7b 11be bebd b0bd cc66 5ebe 3742 abbe
00000360: a90c a33e e394 7d3d 2609 8cbd 4161 01bf
00000370: 68a4 f3be 2dd9 db3e f4d4 413b bba1 5e3e
00000380: 6d36 a1be 7ab1 56be 4155 6e3d 2c6f c2be
00000390: 936d a13e 07e2 87be b76f 8f3e f7fa b5be
000003a0: 6cbd 78be c38b f23e ef23 2cbe e284 91bd
000003b0: 7279 dcbc 014a 4e3e d6ea 84bc 61a1 c53e
000003c0: ff36 0bbe 3f06 623d 4b79 4dbe d95d 2fbd
000003d0: dd9f 643e 1527 dd3d 7a5c 8ebd 645b 22be
000003e0: ed2e f53d a74e 0a3f ad9a 39bd caa9 bd3d
000003f0: 7068 d6bd 4a8c d73d da61 c23d 0654 7dbe

fc3.bias f4 [10]
-0.4327886 -0.84952337 -0.3455916 0.1435159 1.1505148 -0.008223071 -0.085181445 -0.3038642
0.54056495 0.1070857
00000000: 7896 ddbe 5d7a 59bf 62f1 b0be d5f5 123e
00000010: 1244 933f 0fba 06bc 9c73 aebd 1794 9bbe
00000020: 7762 0a3f bf4f db3d
